Network_Model/results/ventral/19/model.pth (torch_old, 10316 bytes, 21 tensors)

cell_types f4 [13, 6]
00000000: 0000 803f 0000 80bf 0000 80bf 0000 803f
00000010: 0000 80bf 0000 80bf 0000 803f 0000 80bf
00000020: 0000 80bf 0000 803f 0000 80bf 0000 80bf
00000030: 0000 803f 0000 80bf 0000 80bf 0000 803f
00000040: 0000 80bf 0000 80bf 0000 803f 0000 80bf
00000050: 0000 80bf 0000 803f 0000 80bf 0000 80bf
00000060: 0000 803f 0000 80bf 0000 80bf 0000 803f
00000070: 0000 80bf 0000 80bf 0000 803f 0000 80bf
00000080: 0000 80bf 0000 803f 0000 80bf 0000 80bf
00000090: 0000 80bf 0000 803f 0000 803f 0000 80bf
000000a0: 0000 803f 0000 803f 0000 80bf 0000 80bf
000000b0: 0000 80bf 0000 80bf 0000 803f 0000 803f
000000c0: 0000 80bf 0000 803f 0000 803f 0000 80bf
000000d0: 0000 803f 0000 803f 0000 80bf 0000 803f
000000e0: 0000 803f 0000 80bf 0000 803f 0000 803f
000000f0: 0000 80bf 0000 803f 0000 803f 0000 80bf
00000100: 0000 803f 0000 803f 0000 80bf 0000 80bf
00000110: 0000 80bf 0000 80bf 0000 803f 0000 803f
00000120: 0000 80bf 0000 803f 0000 803f 0000 80bf
00000130: 0000 803f 0000 803f
1.0 -1.0 -1.0 1.0 -1.0 -1.0 1.0 -1.0
-1.0 1.0 -1.0 -1.0 1.0 -1.0 -1.0 1.0
-1.0 -1.0 1.0 -1.0 -1.0 1.0 -1.0 -1.0
1.0 -1.0 -1.0 1.0 -1.0 -1.0 1.0 -1.0
-1.0 1.0 -1.0 -1.0 -1.0 1.0 1.0 -1.0
1.0 1.0 -1.0 -1.0 -1.0 -1.0 1.0 1.0
-1.0 1.0 1.0 -1.0 1.0 1.0 -1.0 1.0
1.0 -1.0 1.0 1.0 -1.0 1.0 1.0 -1.0
1.0 1.0 -1.0 -1.0 -1.0 -1.0 1.0 1.0
-1.0 1.0 1.0 -1.0 1.0 1.0

iglusnfr_kernel f4 [1, 1, 39]
00000000: 8bb5 3535 0cf5 8435 608e c235 ab55 0e36
00000010: 363d 5036 bb4f 9836 2fc7 de36 7be5 2237
00000020: fe2c 6e37 3915 ae37 5f68 fe37 1ed7 3938
00000030: 22b4 8738 ea19 c638 9f85 1039 20be 5239
00000040: 9b8b 9939 f08e df39 9a96 223a b937 6c3a
00000050: b55b ab3a a234 f83a 6467 333b f75d 813b
00000060: 0f0a ba3b 564e 053c 773b 3e3c dc06 873c
00000070: c070 be3c df32 053d b85e 383d 82b1 7b3d
00000080: 3c9f a83d 7718 dc3d 0b2c 0a3e 9af8 223e
00000090: 7b36 2b3e 682e 073e 0000 0000
6.7691934e-07 9.906084e-07 1.4495563e-06 2.1209514e-06 3.1030045e-06 4.539235e-06 6.6393036e-06 9.7093825e-06
1.4196381e-05 2.0752299e-05 3.0327761e-05 4.430778e-05 6.470854e-05 9.4462026e-05 0.00013782688 0.00020097988
0.00029286448 0.0004264037 0.0006202251 0.0009010989 0.0013073595 0.0018936584 0.0027374858 0.003947969
0.0056774686 0.0081363525 0.011610857 0.016482763 0.023247123 0.032519218 0.045012206 0.06144858
0.082334965 0.10746854 0.13493364 0.15915146 0.16720001 0.13201296 0.0

GCaMP6f_kernel f4 [1, 1, 39]
00000000: 0d4e 203a 55b4 3a3a 9673 593a 1b43 7d3a
00000010: 2e7c 933a fdc5 ab3a c40f c83a 2402 e93a
00000020: c2b0 073b 5009 1e3b f10f 383b c85f 563b
00000030: 84ad 793b c965 913b 8157 a93b 9a3a c53b
00000040: 3bb5 e53b 6bc4 053c 49cb 1b3c 3572 353c
00000050: 7c51 533c fc19 763c 604c 8f3c 58dd a63c
00000060: 0c48 c23c 8327 e23c bd94 033d 8705 193d
00000070: 74c7 313d 1633 4e3d 987f 6e3d 2b48 893d
00000080: 0cc8 9c3d 2c95 b03d 2003 c23d 4168 cb3d
00000090: ed3c c13d cf85 8c3d 0000 0000
0.0006115146 0.00071222085 0.0008295117 0.00096611836 0.0011252218 0.001310527 0.0015263488 0.0017777127
0.002070472 0.0024114437 0.0028085674 0.0032710899 0.0038097808 0.0044371826 0.005167902 0.0060189487
0.0070101297 0.0081645055 0.009508916 0.011074592 0.012897845 0.015020844 0.017492473 0.020369217
0.023715995 0.027606731 0.03212427 0.037358787 0.043403104 0.050341688 0.05822715 0.06703218
0.076553434 0.08622202 0.09473252 0.09931994 0.09435449 0.068614595 0.0

log_pr_bc_weight f4 [13, 6]
00000000: 3c5d 22c0 f2aa 74c0 d56c 66c0 12d0 17c0
00000010: c3f4 4ac0 a1b4 25c0 d877 dcbf 0753 44c0
00000020: cba1 0ec0 a82f 01c0 c088 6ec0 ed86 fcbf
00000030: 9712 31c0 ba6d 60c0 2aaa 61c0 faff 2bc0
00000040: 394a 3fc0 93c6 7ec0 31b2 7fbf b026 92c0
00000050: 3e7c 5ac0 258b 5abf 8d70 56c0 7e81 01c0
00000060: 612f 23c0 fc76 5ac0 ee81 56c0 56c3 20c0
00000070: b76b 50c0 3a17 38c0 0341 38c0 4972 20c0
00000080: f73d 55c0 4ab1 5cc0 351c 38c0 2ceb 68c0
00000090: 9b44 34c0 958a 2dbf 9ecb 84c0 77ba 47c0
000000a0: 51b9 d1bf 76a8 1fc0 4a3d cebe fbd6 10c0
000000b0: 7942 b9c0 309e e0bf 5b27 6ec0 21ff 03c0
000000c0: 6422 adbf 2265 1fc0 d0ad 63c0 73ea 20c0
000000d0: 0ffc 03c0 a101 23c0 f661 7cbf e6d4 25c0
000000e0: 6838 26c0 4874 0cc0 de61 0ec0 b6e0 f1bf
000000f0: 073f 44c0 8788 7dc0 e038 61c0 bc0f 1dc0
00000100: 3122 7cc0 b29a 40c0 3a42 9dbf b067 e2bf
00000110: 2d5e b9c0 c194 f8bf 11c7 93c0 910c f2bf
00000120: 2a55 dcbf 9d4a 5bc0 d44e 72c0 ee4c edbf
00000130: 22f9 dfbf a333 2dc0
-2.5369406 -3.8229337 -3.6003926 -2.3720746 -3.171189 -2.5891497 -1.7224073 -3.0675676
-2.228625 -2.0185337 -3.7270966 -1.9728676 -2.7667596 -3.5066972 -3.526011 -2.6874986
-2.9889052 -3.98087 -0.99881274 -4.5672226 -3.4138331 -0.8536857 -3.3506196 -2.0235286
-2.5497668 -3.4135122 -3.3516803 -2.5119224 -3.2565744 -2.8764176 -2.878968 -2.5069754
-3.331907 -3.4483209 -2.8767216 -3.6393538 -2.8166873 -0.67789584 -4.1498556 -3.120756
-1.6384679 -2.494657 -0.40281135 -2.2631214 -5.7893643 -1.7548275 -3.721152 -2.0624468
-1.352612 -2.4905477 -3.5574837 -2.5143096 -2.0622594 -2.5469744 -0.98586977 -2.5911193
-2.5971928 -2.1945972 -2.2247233 -1.8896701 -3.066347 -3.961458 -3.5190964 -2.4540854
-3.9395869 -3.0094419 -1.2285836 -1.7687893 -5.792746 -1.9420396 -4.61805 -1.8910085
-1.721349 -3.426429 -3.7860613 -1.8539102 -1.7497904 -2.7062767

log_kernel_speed f4 [13, 6]
00000000: e7ba ff3e ee9c 94bf e6c2 95bf e078 2c3e
00000010: a94a c63e 0896 c93e 644c fd3e 54fb 97be
00000020: d7f3 463f fa68 563f 9cf2 7cbf ddd5 113f
00000030: 7009 893f caf2 863f 9037 ddbe e755 983f
00000040: a78d a33f a53b d33e 256c afbb 04ad 64bf
00000050: 2b3b 66bf 4365 36be 6b8b 4c3f dff0 f43e
00000060: e664 013f 9dde 95bf e191 5b3e a3d8 c3bd
00000070: ab1d 1e3f a32b 373e a78a 363d 7d08 9abf
00000080: dbfc 9b3f 3062 50bf 2928 cf3e 91c6 f2be
00000090: b515 3c3f ddfd 67bf e4a6 7cbf 35e9 223f
000000a0: 2674 0a3e 6464 68bf 20b6 31bf bf0c 0cbe
000000b0: 27f2 73bf d020 bb3e ce8e e33d b3d9 9d3e
000000c0: 71f1 a3be 6acb 2cbf 2377 75bf 2172 e53e
000000d0: 2c85 5f3e f0a3 c5be cd9a cd3e 1a82 713f
000000e0: 25d9 49bf 7446 4a3f 270c 083f 8d21 d03e
000000f0: de33 8f3f 6fa9 77bf bd11 7bbf fcc5 953f
00000100: bfd9 6fbf 08f4 953f ea1f f53e bf4f 92bf
00000110: f353 74bf c4fa 853f 2ab6 74bf 3b2c 3a3f
00000120: b891 763f b8b5 7ebf ceaf 7bbf 04ab c13e
00000130: 2a5c 483f 374d 5bbe
0.49947283 -1.1610391 -1.1700103 0.16842985 0.38728836 0.39372277 0.49472344 -0.29683936
0.7771582 0.8375393 -0.9880769 0.56966954 1.0706005 1.0542843 -0.43206453 1.1901215
1.2777604 0.41256443 -0.005353468 -0.893265 -0.89934033 -0.17812066 0.79900235 0.4784002
0.50544584 -1.1708561 0.21442367 -0.095628045 0.6176402 0.1788774 0.044565823 -1.203384
1.218654 -0.8139982 0.40460327 -0.4741712 0.7347062 -0.9062174 -0.98692155 0.63637096
0.1352087 -0.90778184 -0.69418526 -0.13676737 -0.9529137 0.3654847 0.11111222 0.30830154
-0.32020143 -0.67497885 -0.95884913 0.44813636 0.21828145 -0.38601637 0.40157166 0.94339144
-0.7884696 0.7901375 0.53143543 0.40650597 1.1187704 -0.9674291 -0.9807394 1.1701045
-0.9369163 1.1715097 0.4787591 -1.1430587 -0.95440596 1.0467153 -0.9559046 0.7272374
0.963161 -0.9949603 -0.9831513 0.37825787 0.7826563 -0.21416174

sigmoid_offset f4 [13]
00000000: 3bdc 973f 3e1a ef3e a532 763f 3e49 aa3e
00000010: dc63 883f 5d3f 293f 5208 c23e 63a8 903e
00000020: bff3 df3e 22e9 c13e cca9 903f 13c8 ac3e
00000030: f09a 013f
1.1864084 0.4669971 0.9617103 0.33259004 1.0655475 0.6611231 0.37896973 0.2825347
0.4374065 0.3787318 1.1301818 0.33746395 0.5062704

log_sigmoid_slope f4 [13]
00000000: 9ef2 1b40 4b36 0d40 a212 2b40 d99f 2440
00000010: f20c 2040 ef90 0140 106a 1640 c1e9 1340
00000020: f22d 0040 b93a 0e40 6999 a53f 0e5b 1040
00000030: 7c6d fd3f
2.4366832 2.2064388 2.6730123 2.5722563 2.50079 2.024471 2.3502235 2.3111422
2.0028043 2.2223341 1.2937442 2.2555575 1.9799037

log_change_prob01 f4 [13]
00000000: 621c e9bf 6f6b 0ac0 02f1 fbbf c614 ffbf
00000010: d61f 1cc0 2c57 05c0 2a87 08c0 c309 40c0
00000020: 52d9 83c0 3a81 5ec0 5a66 30c0 38cf 77c0
00000030: 27e9 55c0
-1.8211787 -2.1628072 -1.9682925 -1.9928215 -2.439443 -2.0834455 -2.1332498 -3.0005958
-4.1202784 -3.4766374 -2.756247 -3.8720226 -3.3423555

log_change_prob12 f4 [13]
00000000: 63e0 35c0 65dc 22c0 e624 38c0 f2c3 25c0
00000010: 6377 23c0 5c36 edbf e283 17c0 4d7d 24c0
00000020: 9700 2ac0 0c70 60c0 078f 33c0 04b3 35c0
00000030: 5a82 8ec0
-2.8418205 -2.5447018 -2.877252 -2.5900846 -2.5541618 -1.8532214 -2.3674245 -2.5701478
-2.656286 -3.5068388 -2.8056047 -2.8390512 -4.453412

log_intermediate_pool_capacity f4 [13]
00000000: f86c 7040 44f3 0540 8fbd 8c40 f101 3240
00000010: cc04 6640 dd31 6940 ea08 fc3f 2a08 0b3e
00000020: 81c9 f33f c71e 143f 57ad 5740 0aa4 c33f
00000030: 57fc f53f
3.756651 2.0929728 4.3981395 2.7813685 3.5940428 3.6436684 1.969022 0.13577333
1.9045869 0.5785946 3.3699548 1.5284436 1.9217633

log_release_pool_capacity f4 [13]
00000000: c82c b43f a203 d43f ccca eb3f a74f d03f
00000010: b6e5 c13f 17e4 f33f be24 d83f 20f7 0140
00000020: 4113 1540 cbf3 cb3f 72a3 9e3f dab9 fb3f
00000030: 09e8 0e40
1.4076166 1.6563609 1.8421264 1.6274308 1.5148227 1.9053982 1.6886213 2.0307083
2.3293002 1.5933775 1.239363 1.9666092 2.2329123

sig_ip_steady f4 [13]
00000000: 4bd6 5c41 a9ba 5c41 4bd6 5c41 58fc 5b41
00000010: 4bd6 5c41 5651 8c40 4739 5b41 7bcf 5b41
00000020: 1a85 cc3f cba3 5c41 b7d5 5c41 c0b9 813f
00000030: 9a7d 1641
13.802318 13.795571 13.802318 13.749107 13.802318 4.3849287 13.701484 13.738154
1.5978119 13.7899885 13.802176 1.0134811 9.405664

sig_rrp_steady f4 [13]
00000000: ce3d b840 5680 5bc0 4bd6 5c41 9a63 5dc0
00000010: 613a 9940 ead6 5c41 5faa 5dc0 d89a 5941
00000020: 4f2e 443f a607 f4be b97e a540 1bbe 5a41
00000030: 87c4 8e40
5.7575445 -3.429708 13.802318 -3.4592042 4.7883763 13.802469 -3.4635236 13.600304
0.7663316 -0.47662085 5.171719 13.671412 4.46149

log_acl_bc_weight f4 [13, 25]
00000000: a149 f8c0 d9c4 bec0 63ba dbc0 ec80 d8c0
00000010: 75da b1c0 89e0 fdc0 2e5b cbc0 baeb cfc0
00000020: d3a8 02c1 7c1e dcc0 ad21 f1c0 9d2e 01c1
00000030: c8f3 f7c0 3b04 22c1 4701 e9c0 7e3a 1dc1
00000040: 459f f6c0 c292 fec0 2f87 f4c0 9fdb 11c1
00000050: 5736 f2c0 c59a 88c1 c5af f8c0 b356 07c1
00000060: d72d ffc0 5839 aac0 da43 e9c0 aa7d c2c0
00000070: 7164 bfc0 6122 6bc1 9e45 a5c0 3312 bec0
00000080: 9c28 6cc1 8772 eec0 c10a d8c0 cbb1 e6c0
00000090: aacc cfc0 7ea8 0ec1 d0d4 05c1 e9d0 ecc0
000000a0: 80f8 06c1 9671 88c1 788b 88c1 c702 89c1
000000b0: de28 f7c0 6fc9 f6c0 6693 10c1 0a76 88c1
000000c0: f691 11c1 e05a 0fc1 0ab4 dec0 e801 05c1
000000d0: e83f c9c0 21ed e8c0 088e 0fc1 56b1 6cc1
000000e0: 0d05 eec0 10fa e0c0 02e6 dfc0 87ea 04c1
000000f0: a691 f1c0 d8e8 11c1 2151 f6c0 dcd2 ecc0
00000100: fcf8 f6c0 4506 e8c0 b71d f9c0 e552 dec0
00000110: 8543 ffc0 3082 2ac1 f4f3 f4c0 b782 fec0
00000120: bd6c efc0 4192 dec0 a1b5 e7c0 874c 97c0
00000130: ec94 9bc0 97c3 c2c0 147d a1c0 8c2c cfc0
00000140: e0be abc0 0731 9bc0 6e78 9cc0 db5a d8c0
00000150: f94d ecc0 14d2 fac0 25a1 c6c0 5e2e c1c0
00000160: 3924 05c1 f3a9 0ac1 e2b9 00c1 3453 09c1
00000170: d2dc 04c1 b008 0fc1 8cf9 33c1 9158 f3c0
00000180: e404 01c1 2265 0fc1 74ac e0c0 1f5d e3c0
00000190: 44e4 ebc0 ff1f e8c0 619c d6c0 7822 69c1
000001a0: 840a e0c0 ea60 cec0 6060 ddc0 90e8 23c1
000001b0: 5ac1 4dc1 0c77 02c1 7fc5 fbc0 a3ad f2c0
000001c0: 5fb6 e6c0 f3b4 ecc0 cfb1 03c1 683a 0dc1
000001d0: b521 09c1 e788 09c1 ebab e2c0 05c8 e9c0
000001e0: 37ca f0c0 de3b e5c0 3dac fec0 7c32 d7c0
000001f0: 2c7e f3c0 327e 6ac1 25d8 67c1 b1a5 f5c0
00000200: 1d50 c4c0 f7ee cbc0 5f6b 0cc1 c71d c6c0
00000210: 3bea bec0 0627 6fc1 a2c6 ffc0 c470 dbc0
00000220: f05e efc0 2007 e1c0 cfaa 0ac1 ea9a f8c0
00000230: 05e1 0bc1 b488 03c1 2297 88c1 16a3 88c1
00000240: beaa fcc0 e080 88c1 1a2b e5c0 b29a f3c0
00000250: e5f9 6ec1 ead9 e3c0 1739 e7c0 3bed 05c1
00000260: 3f7e f4c0 7962 02c1 ac8b 0ac1 fe59 07c1
00000270: 7ce6 fac0 20a2 f2c0 43b3 b2c0 377b 88c1
00000280: 9494 03c1 4821 cdc0 03f3 c5c0 ee43 01c1
00000290: 20ac c6c0 7e3c d0c0 065c f3c0 70ba d6c0
000002a0: 0597 c1c0 42a8 bac0 ce14 c3c0 c416 d4c0
000002b0: e033 cdc0 5810 0dc1 3378 f2c0 0efb f4c0
000002c0: 4d67 f6c0 64c9 e0c0 6121 e5c0 7042 01c1
000002d0: a5e8 00c1 78ba ecc0 cd15 07c1 422d efc0
000002e0: 1f83 88c1 9d1d f5c0 cde7 d4c0 2bcd e8c0
000002f0: fd2a f2c0 6a5d d6c0 8e0c abc0 433d 6cc1
00000300: 93fb f9c0 f450 67c1 d929 bec0 00e6 efc0
00000310: 7c04 e4c0 2834 dcc0 9df9 6cc1 6233 ecc0
00000320: 6542 03c1 48d4 14c1 9788 88c1 fbf8 fac0
00000330: 4797 88c1 c7b9 07c1 bee9 11c1 89a4 f1c0
00000340: 6e99 fcc0 cdcc dec0 6ca2 fcc0 6304 eec0
00000350: f79f c0c0 5fb5 c7c0 e92e e3c0 d843 66c1
00000360: 308e 04c1 55f1 67c1 a4d8 cac0 dea5 a0c0
00000370: d53d bec0 0864 cfc0 27aa b7c0 0fae ddc0
00000380: 99d3 d4c0 43dc e1c0 95b7 ddc0 fa1b f5c0
00000390: 1277 88c1 b096 f1c0 9729 09c1 50bc edc0
000003a0: f3f2 fdc0 5f75 ecc0 ae96 6dc1 7ee7 05c1
000003b0: fb73 88c1 f505 d1c0 100c ecc0 7333 d7c0
000003c0: 727a bac0 0929 d6c0 40f6 6dc1 0bac c4c0
000003d0: e1e1 6cc1 f8d4 f1c0 7c4f c6c0 c4da 6ec1
000003e0: 2b40 a4c0 cb64 e7c0 4687 88c1 9528 10c1
000003f0: 2923 f2c0 0a9e 12c1 557e f9c0 4c7a 88c1
-7.758988 -5.9615293 -6.8665023 -6.7657375 -5.557917 -7.933659 -6.3548803 -6.497525
-8.166217 -6.878721 -7.535361 -8.07388 -7.7485085 -10.126033 -7.281406 -9.82678
-7.706942 -7.955415 -7.641502 -9.116118 -7.5691333 -17.075571 -7.7714562 -8.458667
-7.9743457 -5.3195 -7.2895327 -6.07784 -5.981011 -14.695893 -5.164748 -5.9397216
-14.759914 -7.4514804 -6.7513127 -7.2092032 -6.4937334 -8.916136 -8.364456 -7.4005017
-8.435669 -17.055462 -17.0681 -17.126356 -7.7237387 -7.712089 -9.035986 -17.057636
-9.098135 -8.959686 -6.9594774 -8.312965 -6.289051 -7.2789464 -8.972176 -14.793295
-7.4381166 -7.030525 -6.996827 -8.307258 -7.5490294 -9.119347 -7.6974034 -7.4007397
-7.7178936 -7.2507653 -7.7848773 -6.947619 -7.976992 -10.656784 -7.6547794 -7.9534564
-7.4820237 -6.9553533 -7.2409215 -4.7280917 -4.861929 -6.0863757 -5.0465183 -6.474188
-5.36705 -4.849735 -4.889701 -6.7610908 -7.384518 -7.8381443 -6.207171 -6.03691
-8.321343 -8.6664915 -8.045382 -8.582813 -8.303911 -8.939621 -11.248425 -7.6045613
-8.063694 -8.962191 -7.0210514 -7.1051173 -7.3716145 -7.253906 -6.706589 -14.570915
-7.0012836 -6.4493303 -6.9180145 -10.244278 -12.859705 -8.154064 -7.8678584 -7.583696
-7.209762 -7.3970885 -8.23091 -8.826759 -8.570729 -8.595923 -7.083486 -7.3056664
-7.5246844 -7.163558 -7.958525 -6.7249126 -7.609152 -14.655809 -14.49027 -7.676476
-6.1347795 -6.3729205 -8.776214 -6.191135 -5.9660926 -14.947027 -7.992997 -6.8575153
-7.480339 -7.0321198 -8.666701 -7.7689104 -8.742436 -8.220875 -17.073795 -17.079632
-7.8958426 -17.062927 -7.1615114 -7.6126337 -14.936009 -7.120351 -7.225719 -8.370418
-7.640411 -8.149041 -8.6591 -8.459471 -7.8406353 -7.5822906 -5.5843825 -17.060163
-8.223774 -6.4103127 -6.1859145 -8.079084 -6.2085114 -6.5073843 -7.6049833 -6.7102585
-6.049685 -5.8330393 -6.0962896 -6.627779 -6.4125824 -8.81649 -7.5771728 -7.6556463
-7.70011 -7.024584 -7.1603246 -8.07872 -8.056798 -7.3977623 -8.442822 -7.4742746
-17.064024 -7.659865 -6.653296 -7.275045 -7.5677476 -6.698903 -5.3452826 -14.764956
-7.8119597 -14.457264 -5.9426084 -7.496826 -7.1255474 -6.8813667 -14.810941 -7.3812723
-8.20371 -9.3018265 -17.066694 -7.842893 -17.073866 -8.482856 -9.119566 -7.551335
-7.893729 -6.9625 -7.894827 -7.4380355 -6.019527 -6.24089 -7.0994763 -14.391563
-8.284714 -14.496419 -6.3389454 -5.0202475 -5.945048 -6.480961 -5.7395205 -6.9274974
-6.65083 -7.0581374 -6.92866 -7.659665 -17.05814 -7.5496445 -8.572654 -7.4292374
-7.935907 -7.3893275 -14.849287 -8.369017 -17.056631 -6.531977 -7.3764725 -6.7250304
-5.827447 -6.692509 -14.87262 -6.1460013 -14.805146 -7.557247 -6.1972027 -14.92841
-5.132833 -7.231054 -17.066051 -9.009908 -7.566792 -9.163584 -7.7966714 -17.059715

log_acl_acl_weight f4 [25, 25]
00000000: 1dd7 89c0 aaaf 7ec0 091b 8ac0 1ed8 76c0
00000010: f57e 42c0 76e4 a0c0 c313 34c0 5333 82c0
00000020: f1d4 9dc0 5de8 88c0 dc0e 51c0 adcc a8c0
00000030: 5cbf d3c0 c1a6 cfc0 69d6 cec0 4da7 c9c0
00000040: f926 d4c0 a1d4 cec0 4be3 d2c0 5bf2 ddc0
00000050: 10e9 c4c0 5480 ccc0 2c70 c8c0 0bd1 80c0
00000060: 5d02 e1c0 23da 93c0 65e8 7ac0 1b03 88c0
00000070: 5986 96c0 3098 72c0 9ded 97c0 b4f4 8ac0
00000080: 11b0 8ac0 3197 a3c0 7030 95c0 7ed3 44c0
00000090: bc02 adc0 6611 cac0 bc95 cdc0 78b4 c8c0
000000a0: 5d83 d2c0 16c4 cfc0 0717 c6c0 f5ae dbc0
000000b0: 0aa8 c8c0 a8b5 d0c0 65e5 c2c0 e672 cac0
000000c0: 4173 86c0 316b d7c0 9857 88c0 71e1 64c0
000000d0: f08b 90c0 d555 9fc0 a764 8bc0 7045 90c0
000000e0: 689c a4c0 efd5 77c0 3e07 a8c0 46f1 67c0
000000f0: 5b1f 5cc0 a6aa a4c0 ecc2 b0c0 9199 cac0
00000100: 9db8 d9c0 fe02 d3c0 8490 d7c0 dd67 ddc0
00000110: 0a9c c7c0 94ea cbc0 c8bb dac0 5f20 d1c0
00000120: 61aa c9c0 37fa d7c0 eb11 d6c0 ae6c 88c0
00000130: 39d8 75c0 d9cb 95c0 9e0c 75c0 4a82 6cc0
00000140: a6ba a3c0 d85d 81c0 1464 80c0 a276 99c0
00000150: 7aa4 a8c0 5904 65c0 acfa a8c0 55fb cec0
00000160: f7db c5c0 a028 cac0 a8d0 bdc0 c480 c3c0
00000170: e387 e0c0 9b17 ddc0 086a dac0 65cc c6c0
00000180: ed63 c7c0 d50e ccc0 e519 8ec0 7d7e cbc0
00000190: 6730 86c0 91f9 84c0 b7ff 8ac0 9006 87c0
000001a0: b8f2 91c0 770b 82c0 ce05 87c0 3512 8ac0
000001b0: d229 89c0 271c 9ec0 756f 8ac0 8af8 9ec0
000001c0: 42d6 d2c0 1820 d4c0 27fc ccc0 18b1 cbc0
000001d0: 820f cdc0 725e cac0 dc71 e9c0 32cd d2c0
000001e0: 828d d1c0 aed6 a7c0 8a46 c1c0 ca04 a4c0
000001f0: 5676 d5c0 318e 5ec0 215d 60c0 ba87 80c0
00000200: 6478 64c0 e176 5dc0 05aa 7fc0 3fe8 68c0
00000210: 3230 71c0 a937 77c0 89b9 adc0 3357 57c0
00000220: 3467 5bc0 7352 7ec0 12f8 c6c0 feca b0c0
00000230: cdd9 cec0 82cd bfc0 237a b9c0 a091 b7c0
00000240: 06e3 f0c0 2377 b3c0 cf94 77c0 233d b4c0
00000250: 41a1 68c0 7ca0 b2c0 97ec 8bc0 412f 8fc0
00000260: 0208 8bc0 dc71 a2c0 dfc6 85c0 bacc 91c0
00000270: 52cf 90c0 2352 8ec0 8082 afc0 ef1a 88c0
00000280: cc91 9cc0 482d 9bc0 b2d8 eac0 ab41 d2c0
00000290: 217d c9c0 1b06 d4c0 2259 cfc0 45bc d4c0
000002a0: 942a dac0 f16d d0c0 a00e c8c0 1016 99c0
000002b0: d5f8 cac0 0839 a3c0 b43b cdc0 1ab8 94c0
000002c0: d952 88c0 bffb 8fc0 f51e 84c0 c39f 61c0
000002d0: 17d7 7cc0 6ea2 67c0 dadc 86c0 97a8 a7c0
000002e0: 50b6 c8c0 aedf 83c0 5f1c 92c0 59c1 97c0
000002f0: 01cd c6c0 cce8 c3c0 84f0 ccc0 d23a d0c0
00000300: efcd dcc0 5636 cfc0 7e7d bcc0 524a dcc0
00000310: cde3 adc0 0b9b d1c0 122f a4c0 a05e e2c0
00000320: a0b3 73c0 1c16 8ac0 c66e 86c0 d165 80c0
00000330: 3f27 6ac0 a3b6 7bc0 924d 4dc0 64b5 68c0
00000340: 1659 6ac0 f0c7 d1c0 0934 83c0 7150 8ac0
00000350: 3a01 95c0 bec6 9fc0 a2a7 c6c0 60bd cfc0
00000360: 79ee cac0 cee2 c7c0 0275 c3c0 44f9 c7c0
00000370: 6807 cac0 878f 9cc0 e46e bdc0 654e 88c0
00000380: 1981 bcc0 78c1 8fc0 b295 99c0 72e8 8ac0
00000390: d229 91c0 58f9 98c0 ee8c dbc0 74e8 abc0
000003a0: 34d7 cec0 29aa c9c0 ddb5 7ac0 dc7b e1c0
000003b0: bb83 cfc0 c627 d6c0 1e7a c9c0 92e9 d4c0
000003c0: fe98 cdc0 83ec c5c0 b471 d0c0 fa8e d7c0
000003d0: 546e c9c0 b577 e0c0 ac53 c6c0 8161 d4c0
000003e0: cdb5 a2c0 a007 8bc0 ce1b 5fc0 ace0 7fc0
000003f0: 5950 64c0 025f 6fc0 8d74 66c0 5816 5ec0
-4.307509 -3.9794717 -4.3158 -3.8569407 -3.0389988 -5.0278883 -2.8137062 -4.068765
-4.932244 -4.2783647 -3.266532 -5.274985 -6.6171093 -6.4891057 -6.463673 -6.3016725
-6.6297574 -6.4634557 -6.5902457 -6.9358344 -6.15345 -6.390665 -6.263693 -4.025518
-7.0315385 -4.620378 -3.9204342 -4.250379 -4.7039 -3.7905388 -4.7477555 -4.342371
-4.3339925 -5.112206 -4.662163 -3.0754085 -5.406584 -6.314624 -6.424528 -6.27203
-6.5785356 -6.4926863 -6.190311 -6.865107 -6.2705126 -6.522175 -6.0905023 -6.3265257
-4.201569 -6.731835 -4.2606926 -3.5762599 -4.517082 -4.9792275 -4.3560367 -4.5084763
-5.1440926 -3.8724325 -5.250884 -3.6241012 -3.4394138 -5.145831 -5.523794 -6.331246
-6.803786 -6.5941153 -6.736391 -6.9189286 -6.2377977 -6.372385 -6.8354225 -6.5352015
-6.302048 -6.749294 -6.6896873 -4.2632666 -3.8413222 -4.6811337 -3.828895 -3.6954522
-5.116534 -4.0427055 -4.0122166 -4.7957315 -5.2700777 -3.5783904 -5.2805996 -6.46818
-6.183101 -6.317459 -5.9317207 -6.1094685 -7.0165877 -6.9091315 -6.8254433 -6.2124505
-6.230948 -6.3768106 -4.440661 -6.3591905 -4.1934085 -4.1554646 -4.343715 -4.219551
-4.5608788 -4.0638995 -4.2194586 -4.3147225 -4.286355 -4.9409366 -4.3261056 -4.9678392
-6.5886545 -6.6289177 -6.4057803 -6.365368 -6.408143 -6.324029 -7.295149 -6.5875483
-6.548524 -5.244956 -6.0398607 -5.1255846 -6.6706953 -3.4774287 -3.5056841 -4.016568
-3.569848 -3.4603808 -3.9947522 -3.6391752 -3.7685666 -3.8627722 -5.4288983 -3.3646972
-3.428174 -3.9737823 -6.217782 -5.5247793 -6.464087 -5.9938364 -5.7961593 -5.7365265
-7.527713 -5.608293 -3.8684576 -5.632463 -3.6348422 -5.5820904 -4.3726306 -4.4745183
-4.3447275 -5.076399 -4.1805263 -4.556241 -4.5253077 -4.4475265 -5.48468 -4.253288
-4.8927975 -4.8492775 -7.338952 -6.570516 -6.2965245 -6.6257453 -6.4796305 -6.647982
-6.8176975 -6.5134206 -6.2517853 -4.783943 -6.342875 -5.100712 -6.413538 -4.6474733
-4.2601132 -4.4994807 -4.128779 -3.525376 -3.950628 -3.619289 -4.2144594 -5.23933
-6.272255 -4.1210546 -4.5659633 -4.742352 -6.212525 -6.1221676 -6.40436 -6.50718
-6.9001384 -6.475383 -5.890319 -6.8840723 -5.4340577 -6.550176 -5.130746 -7.074051
-3.8078384 -4.315199 -4.201022 -4.0124288 -3.6586454 -3.9330223 -3.2078595 -3.6360712
-3.6616874 -6.5556564 -4.100102 -4.3223195 -4.6563997 -4.9930105 -6.207963 -6.491867
-6.3416104 -6.246436 -6.108033 -6.249178 -6.313404 -4.8925204 -5.9197865 -4.2595696
-5.890759 -4.492367 -4.7995234 -4.3408747 -4.536355 -4.7804375 -6.8609533 -5.3721256
-6.46377 -6.3020215 -3.91735 -7.0463696 -6.4848304 -6.692355 -6.296157 -6.653512
-6.424926 -6.185121 -6.51388 -6.736203 -6.294718 -7.0146127 -6.197714 -6.6369023
-5.0846925 -4.344681 -3.486072 -3.998088 -3.567404 -3.7401738 -3.6008637 -3.4701138

glycinergic_amacrine_cells.log_bc_ac_weight f4 [25, 13]
00000000: 7e6c 81c0 5dd5 8dc0 431e 60c0 8cf4 98c0
00000010: 7cbe 80c0 e0eb 95c0 980b 8cc0 8511 afc0
00000020: a2bf b8c0 99cd b9c0 205b b9c0 c513 bac0
00000030: 121d aec0 95e1 1ac0 3636 84c0 0e61 35c0
00000040: 0837 8ec0 eb59 2ec0 469b 80c0 40fa 86c0
00000050: 2987 aec0 9781 9bc0 6995 9cc0 4357 a5c0
00000060: 50b4 b2c0 29ab 9fc0 7b6d 74c0 4c4e 9ec0
00000070: 96b1 5ec0 5d4b a5c0 dd6d 8bc0 012f 99c0
00000080: 6fd3 98c0 29c4 a7c0 3629 c4c0 33da cbc0
00000090: 0941 c1c0 05b7 adc0 daea c0c0 44d0 70c0
000000a0: b6c4 97c0 4766 53c0 4b92 a4c0 4330 6fc0
000000b0: 8177 a6c0 cb14 9dc0 8bcd b5c0 142e b9c0
000000c0: eab2 b4c0 2be1 c7c0 4de2 c5c0 d24d b6c0
000000d0: d3e0 53c0 88d4 30c0 be27 72c0 e580 8bc0
000000e0: 2a88 4ec0 36aa 98c0 5643 bec0 ca7e a4c0
000000f0: d9b9 b4c0 085b b3c0 5f46 c7c0 4563 b9c0
00000100: 2203 a5c0 3e68 48c0 eec4 8dc0 39de 54c0
00000110: fd97 93c0 6c6f 54c0 bff7 65c0 10e8 73c0
00000120: a5c1 b9c0 4ff3 94c0 8a36 90c0 6573 98c0
00000130: 3242 c8c0 d5ec 91c0 4044 45c0 0b05 3dc0
00000140: 93cd 66c0 26fd 7fc0 2582 47c0 6996 7cc0
00000150: e6b4 97c0 1978 bbc0 c6a0 a5c0 351f b0c0
00000160: 8bf4 b9c0 6bda b3c0 842f a8c0 4094 5ac0
00000170: c55e 67c0 dcb5 67c0 be41 86c0 73fe 56c0
00000180: cebd 66c0 7c3c 8fc0 d154 b2c0 6684 abc0
00000190: bb05 afc0 b833 bac0 8655 b8c0 59fb a7c0
000001a0: 6d0d 72c0 19df 7fc0 b902 88c0 6c3d 6fc0
000001b0: a1e4 78c0 485f 51c0 c67e 1cc0 54cd b5c0
000001c0: 099a bec0 f5e1 cbc0 add7 bfc0 bdbd b1c0
000001d0: 58fb b1c0 93b8 6dc0 769e 8fc0 b176 6fc0
000001e0: 0bc2 89c0 b9cb b9c0 66fc bcc0 502a b4c0
000001f0: e3c9 c3c0 b78f bdc0 bb48 22c0 2cae c7c0
00000200: b9af b4c0 94ff b0c0 1992 14c0 4551 18c0
00000210: 75de 0fc0 48cb 1ec0 c91c 16c0 a20b 03c0
00000220: 7b94 a0c0 c8bd 4ac0 560b 87c0 7979 6ac0
00000230: a6c4 72c0 9599 b3c0 6c43 b2c0 1f29 6fc0
00000240: 325e 64c0 0e25 68c0 83cc 36c0 6e40 71c0
00000250: 9e97 77c0 447c 32c0 4c7b 3ac0 2c0e bcc0
00000260: 2d63 bcc0 70c0 bcc0 bb4f bec0 56ef aec0
00000270: 6b36 b7c0 fe62 aec0 2d18 c0c0 badd 91c0
00000280: d7e3 62c0 8ce2 01c0 5132 71c0 f97b 3ec0
00000290: d781 7fc0 b1bb 8cc0 f7ed 8fc0 8a64 22c0
000002a0: 8771 bac0 05ec c3c0 0f3b a6c0 cf19 b5c0
000002b0: 9a34 89c0 4e65 bac0 7e13 3dc0 beb2 6dc0
000002c0: 6895 18c0 e79e 46c0 cf0d 81c0 2085 4fc0
000002d0: fe29 17c0 3329 a9c0 6f70 b4c0 2b3a adc0
000002e0: ae7c bec0 ec5f 99c0 7ddd b6c0 2332 c2c0
000002f0: eaf6 89c0 bf58 19c0 bc0e 51c0 08f9 66c0
00000300: 2db6 4cc0 3f7a 3bc0 3646 b5c0 06c4 b9c0
00000310: 2722 c1c0 e32e bdc0 eb73 b8c0 3478 bbc0
00000320: 8b87 bcc0 d6fa 82c0 ce16 29c0 d1fa 87c0
00000330: ca4c 46c0 6cc7 23c0 07fc a4bf 9b12 87c0
00000340: 74e7 bfc0 b417 a8c0 d643 bdc0 d275 98c0
00000350: 9a8b bec0 564f b8c0 d31e 7ac0 f213 23c0
00000360: 8ecb 43c0 20c6 89c0 881c 63c0 6ba6 2dc0
00000370: 7e2e bac0 fab7 c7c0 3f89 a9c0 dd08 c6c0
00000380: 9efe 99c0 2b2b c6c0 2a5c c5c0 ac7e 79c0
00000390: ae09 2fc0 fb67 74c0 a09a 56c0 528b 6dc0
000003a0: aa6b 1ec0 14e0 b9c0 c0bb bbc0 f957 c3c0
000003b0: 6879 bec0 edb5 c9c0 4026 b9c0 b989 bcc0
000003c0: e3fa 2fc0 4e08 cfbf 25ef cbbf db79 16bf
000003d0: 474c 3ac0 f8ff 3ac0 7218 bac0 2b45 c2c0
000003e0: 6fce b3c0 4c0b bec0 2b80 99c0 f2be b9c0
000003f0: 701b b9c0 5abd 86c0 3535 01c0 245d 7bc0
-4.0444937 -4.4322953 -3.501847 -4.779852 -4.0232525 -4.6850433 -4.3764153 -5.4708886
-5.7733927 -5.8063474 -5.7923737 -5.8149133 -5.4410486 -2.4200184 -4.1316175 -2.8340487
-4.4442177 -2.7242382 -4.0189543 -4.218048 -5.453999 -4.859569 -4.8932385 -5.166902
-5.584511 -4.9896436 -3.8191822 -4.9470577 -3.479589 -5.1654496 -4.357161 -4.786988
-4.77581 -5.2426953 -6.1300306 -6.3703856 -6.039189 -5.4285913 -6.0286684 -3.7627115
-4.7427626 -3.3031175 -5.142858 -3.7373207 -5.202088 -4.908788 -5.6813407 -5.786875
-5.64684 -6.2462363 -6.1838746 -5.6969995 -3.3105972 -2.7629719 -3.7836757 -4.359484
-3.2270608 -4.7707777 -5.9457197 -5.140477 -5.6476865 -5.604862 -6.22734 -5.793368
-5.1566324 -3.1313624 -4.4302893 -3.3260634 -4.6123033 -3.3193007 -3.5932462 -3.811039
-5.8048882 -4.6547008 -4.5066576 -4.7640862 -6.2580805 -4.56016 -3.0822906 -2.9534328
-3.6062973 -3.999826 -3.1173184 -3.9466803 -4.7408323 -5.8584104 -5.1758757 -5.5038095
-5.8111014 -5.6204123 -5.2558002 -3.4152985 -3.6151593 -3.6204748 -4.195525 -3.3592803
-3.6053348 -4.4761333 -5.5728536 -5.359912 -5.4694495 -5.8188133 -5.76044 -5.249432
-3.7820694 -3.9979918 -4.2503324 -3.738124 -3.8889544 -3.2714405 -2.4452376 -5.6813145
-5.956303 -6.3713326 -5.9950776 -5.5544114 -5.5619316 -3.7143905 -4.4880934 -3.7416193
-4.304937 -5.8061185 -5.9058104 -5.630165 -6.1183944 -5.9237933 -2.535689 -6.240011
-5.6464505 -5.5311985 -2.321417 -2.3799603 -2.2479527 -2.4811573 -2.345507 -2.047585
-5.018125 -3.1678333 -4.220134 -3.663664 -3.7932525 -5.612498 -5.57073 -3.7368848
-3.5682492 -3.6272616 -2.8562324 -3.7695575 -3.868629 -2.7888346 -2.9137754 -5.87673
-5.8871064 -5.898491 -5.9472327 -5.466716 -5.725393 -5.449584 -6.002951 -4.558316
-3.5451562 -2.0294523 -3.768696 -2.9763167 -3.9922998 -4.3979115 -4.4977984 -2.5373864
-5.8263583 -6.122561 -5.1947093 -5.6594005 -4.287671 -5.8248663 -2.9543147 -3.7140346
-2.384119 -3.1034486 -4.0329356 -3.2425003 -2.361938 -5.286279 -5.638725 -5.4133506
-5.9527197 -4.792959 -5.714537 -6.06862 -4.311391 -2.3960416 -3.2665243 -3.6089497
-3.1986191 -2.9293363 -5.6648207 -5.8051786 -6.035419 -5.9119735 -5.76415 -5.858423
-5.891546 -4.0931196 -2.642017 -4.249367 -3.0984368 -2.5590467 -1.2889413 -4.221021
-5.9970036 -5.2528934 -5.9145308 -4.7643824 -5.954541 -5.7596846 -3.9081314 -2.5480924
-3.059299 -4.305435 -3.5486164 -2.7132823 -5.8181753 -6.241208 -5.2980037 -6.188582
-4.812331 -6.1927695 -6.1675005 -3.8983564 -2.7349658 -3.8188465 -3.3531876 -3.7116284
-2.4753213 -5.8086033 -5.8666687 -6.104489 -5.95232 -6.3034577 -5.785919 -5.891812
-2.749688 -1.6174409 -1.5932356 -0.58779687 -2.9109056 -2.921873 -5.815484 -6.0709434
-5.6189494 -5.938879 -4.7968955 -5.8045588 -5.7845993 -4.210614 -2.0188725 -3.9275599

glycinergic_amacrine_cells.log_ac_tau_rise f4 [25]
00000000: 8782 52c0 0a28 5cc0 883f 77c0 e547 71c0
00000010: 43f8 51c0 6337 50c0 6af4 17c0 733b 69c0
00000020: beb8 7dc0 265a 36c0 ab1c 68c0 29d3 91c0
00000030: 8754 6fc0 e451 95c0 f1c6 5ec0 5242 09c0
00000040: dd0d 81c0 8190 65c0 fc2f 2cc0 e301 31c0
00000050: 6ccc 62c0 5557 8ec0 51c8 97c0 ba3c 59c0
00000060: 4f19 68c0
-3.2892168 -3.4399438 -3.8632526 -3.770013 -3.2807777 -3.2533805 -2.3742929 -3.6442535
-3.9644008 -2.8492522 -3.6267498 -4.5570264 -3.7395341 -4.6662464 -3.4808924 -2.1446729
-4.0329423 -3.5869448 -2.6904287 -2.7657402 -3.543727 -4.4481606 -4.7432027 -3.3943315
-3.6265447

glycinergic_amacrine_cells.log_ac_tau_decay f4 [25]
00000000: 032f 3fc0 e6d8 51c0 284d 4fc0 3e55 46c0
00000010: 2eb8 3cc0 b20a 5ac0 f297 15c0 28fc 59c0
00000020: 9552 78c0 8134 2dc0 01c5 52c0 6b02 84c0
00000030: 09c3 2dc0 ecf4 3ec0 b186 4dc0 f7a8 17c0
00000040: 19ae 42c0 12fb 51c0 85d9 5bc0 eba0 58c0
00000050: 53c7 4dc0 1bca 42c0 2f47 47c0 bd5f 4fc0
00000060: 513a 50c0
-2.9872444 -3.2788634 -3.2390842 -3.0989528 -2.9487414 -3.4069028 -2.337399 -3.4060154
-3.8800404 -2.7063296 -3.2932742 -4.125295 -2.715029 -2.9836988 -3.211346 -2.3696878
-3.041876 -3.280949 -3.4351513 -3.3848217 -3.2152908 -3.0435855 -3.1137197 -3.2402184
-3.2535594

glycinergic_amacrine_cells.log_ac_sigmoid_slope f4 [25]
00000000: 4cdd 463f 0ded 003f 0738 833f 8121 4c3f
00000010: 9cab 023f 2a73 543f 9f28 003f c46e 393f
00000020: 858d 523f 3d26 3e3f a00d 243f 861a 0b3f
00000030: 2f37 923e 4f13 873e a108 b03e 721b ee3e
00000040: 6764 da3e e4db cf3e 4a10 343f 3d92 e03e
00000050: df40 fc3e 4fa0 1b3f 8c17 ff3e e143 e93e
00000060: 02d1 f73e
0.7768142 0.5036171 1.0251473 0.7973862 0.51043105 0.82988226 0.5006198 0.7243464
0.8224719 0.74277097 0.6408329 0.54337347 0.28557727 0.2638192 0.34381583 0.46505314
0.42654726 0.4059745 0.70337355 0.4386157 0.49268243 0.60791487 0.49822652 0.455596
0.48401648

glycinergic_amacrine_cells.ac_sigmoid_offset f4 [25]
00000000: 4db6 963f 0876 cd3f cea0 753f 3891 983f
00000010: bc9e cb3f 5393 893f bddc d43f 97a2 a23f
00000020: 6aed 903f 46ed aa3f 8467 9e3f 7db4 c83f
00000030: 883e 0040 960e f83f c994 ea3f 96e7 d13f
00000040: a2d4 d33f af2c d23f 8823 f93e 105c ce3f
00000050: 433f d23f 9191 b13f 8203 cc3f 8860 c53f
00000060: 85ae d33f
1.1774384 1.6051645 0.95948493 1.1919317 1.5907817 1.0748085 1.6629864 1.2705868
1.1322453 1.335366 1.237534 1.5680081 2.0038166 1.9379451 1.8326656 1.63988
1.6549265 1.6419886 0.4865992 1.6121845 1.6425556 1.3872548 1.593857 1.5420084
1.6537634

glycinergic_amacrine_cells.kernel_time f4 [1, 52]
00000000: cdcc 4c3f cdcc 483f cdcc 443f cdcc 403f
00000010: cdcc 3c3f cdcc 383f cdcc 343f cdcc 303f
00000020: cdcc 2c3f cdcc 283f cdcc 243f cdcc 203f
00000030: cdcc 1c3f cdcc 183f cdcc 143f cdcc 103f
00000040: cdcc 0c3f cdcc 083f cdcc 043f cdcc 003f
00000050: 9a99 f93e 9a99 f13e 9a99 e93e 9a99 e13e
00000060: 9a99 d93e 9a99 d13e 9a99 c93e 9a99 c13e
00000070: 9a99 b93e 9a99 b13e 9a99 a93e 9a99 a13e
00000080: 9a99 993e 9a99 913e 9a99 893e 9a99 813e
00000090: 3333 733e 3333 633e 3333 533e 3333 433e
000000a0: 3333 333e 3333 233e 3333 133e 3333 033e
000000b0: 6666 e63d 6666 c63d 6666 a63d 6666 863d
000000c0: cdcc 4c3d cdcc 0c3d 9a99 993c cdcc 4c3b
0.8 0.784375 0.76875 0.753125 0.7375 0.721875 0.70625 0.690625
0.675 0.659375 0.64375 0.628125 0.6125 0.596875 0.58125 0.565625
0.55 0.534375 0.51875 0.503125 0.4875 0.471875 0.45625 0.440625
0.425 0.409375 0.39375 0.378125 0.3625 0.346875 0.33125 0.315625
0.3 0.284375 0.26875 0.253125 0.2375 0.221875 0.20625 0.190625
0.175 0.159375 0.14375 0.128125 0.1125 0.096875 0.08125 0.065625
0.05 0.034375 0.01875 0.003125
